models/basic_CNN/best_model.pth (torch, 628130 bytes, 10 tensors)

conv1.weight f4 [16, 3, 3, 3]
00000000: 8782 48bd f54f 82be 8f7d 783d c553 2a3f
00000010: 572d b73e a367 063e cfb5 d23e 1ee5 4e3f
00000020: 33b6 003f 9a20 c3be e274 acbe bb69 febe
00000030: b16d 70bf f455 3dbf 79a1 3fbf d16f 2abf
00000040: 23cc 59bf 7b83 2fbf 31da 923e e0f9 703f
00000050: 6552 b73e a99d 153e 2757 2b3f c3f9 033f
00000060: 956e 023e 69a7 bebd bb0f b2bd 7ce7 063f
00000070: 436f a9bd 9be6 07be bbc6 1bbe 2e81 9e3b
00000080: 52ee 8b3e fef3 c7bd d953 36bc 2142 8cbe
00000090: ed90 363e 7e2a 82be 0eb3 1aba ee87 2ebf
000000a0: 3c14 47be 30f8 573f 58b3 14bf 0996 a93e
000000b0: 4b52 693e 3d6f 40be 3dda 3ebe 0627 033e
000000c0: 06d2 9abf f244 873d 5945 8e3f 8188 41bf
000000d0: 6c08 2d3f d4c3 b43e ccb0 783f 0f86 ab3f
000000e0: d01b 963f add8 47be b195 b03c cda8 c63e
000000f0: 9c2b 93bf cdc9 b3bf cba6 2cbf f6c5 0bbd
00000100: 6224 a7be 753d 093e 15af 3abe 8c63 32bf
00000110: 7fbc 9dbe 896c 963d 7928 433d 606a 99bd
00000120: 59ae 0fbf 1ddc 16bf c028 01bf 6a03 953e
00000130: 7b07 eb3d c9b4 9d3c 7792 833f 9c35 5c3f
00000140: 0c1f fd3e c5a6 9bbe aa8d 48bf 6a96 c0bc
00000150: 43a1 d53e 900d 823f 38a3 013e 8e1f c1be
00000160: 5f9e 0ebf 236e 6dbe aeee dc3c cc13 2cbf
00000170: e892 ad3d e528 7d3f f347 db3f b567 893e
00000180: bd49 fbbe 4f6c 39bf ad31 4ebe a07b 7cbe
00000190: 1ecb 26bf f0a0 0e3c 6705 223f 5120 8e3f
000001a0: 29b5 ff3e 1035 03bf 7d03 59bf 51c8 c0bd
000001b0: 0cfc bcbe 8764 58be 488f 8abd ebd1 dcbc
000001c0: facd cebe 1ab4 f5be 70e7 42bf e166 f33e
000001d0: 4609 05bf 8a6e 433f f96c ee3e fe86 c73e
000001e0: 4961 603f 3ca3 b73e ce11 733e ea2d b3bd
000001f0: 9a2f 9e3f 3aa6 6bbe 8eb7 0bbf f222 0cbf
00000200: c72c a3be 8a77 3dbd 4d5d 25be 3435 0abf
00000210: b833 3cbe d1e1 0b3f 09cd 24be de6d 88be
00000220: 677c 98be 71f2 b1be 353e 03bf 26fc 1ebf
00000230: 7a2e 27bf 8ee7 c3bc 92dd 2c3e de42 773d
00000240: cbe0 9d3e e517 f33e 1377 b43e 70e6 bc3b
00000250: 80c2 b43b 5f35 8ebe 323b f73d 883f 82be
00000260: 19dc 70be bbe1 113f 14fb 413f bb9c ec3e
00000270: bb5a eabb 286b 9a3e ddbc 353e 3d09 9ebd
00000280: da64 233d 0b5d a7be b2ec a9be b9f4 45bf
00000290: bfc7 19bf 1a11 de3b ff4d 2a3d 0e49 50bd
000002a0: de57 e53d 7833 093c d811 a1bc 8e42 c9be
000002b0: bbf5 30bf a400 debe 16b0 9a3e 3d06 453d
000002c0: 2746 82bc e250 003d 36ee 353e ea5d f9bc
000002d0: c612 a0be 0350 3ebf ecee 69be 4c41 973e
000002e0: 4f30 803e ba96 873e 24d4 963e e7ec 7c3e
000002f0: f5b2 183e 8b0a 173f eb2d 803e 5cc8 babe
00000300: f7da 293c 79a2 843f e5ac 083d d22a d8bd
00000310: 9b14 063e 7e81 f53e ac48 c3bc 1140 90be
00000320: a8f6 15bf 3db2 fdbe 7164 023e 7b38 bcbe
00000330: e9a3 d1be fd70 c2be dfc6 2a3d f36f e53e
00000340: fa48 b33b 7aff 20bf f1fc 803d 434a 4e3f
00000350: 1545 8bbe 0786 af3d 9c49 743e a624 b43e
00000360: 0599 9abd 1b84 42be de31 90bd 7576 653e
00000370: 47c9 07be 1ca9 8dbd b1bc 8e3e 00bc a9bd
00000380: 8eae 803e 50aa 673e 6129 b93e 0d4c 273e
00000390: 7390 be3e cd06 703e 8b3b 953e 7b21 013e
000003a0: 8248 033e b2ff c53d 31b8 113f 5251 063e
000003b0: 4d72 ccbe 3a4f 333e 860f 10be 82b9 3bbf
000003c0: 06a2 e83d 5e03 41bf d002 83bf 99d9 0ebf
000003d0: a009 053f cb9c 3e3f 79e6 59be 282c b13d
000003e0: 2926 4f3f e752 b7be 4f61 debd 7f6c e8bb
000003f0: f8ac a0bd b4c7 e2bc 662d f8bc edc1 7d3e
-0.048952606 -0.25451627 0.060666617 0.6653407 0.3577678 0.13125472 0.41154334 0.80818355
0.50278014 -0.3811081 -0.33682925 -0.4969004 -0.93917376 -0.7395928 -0.7485576 -0.6657687
-0.8507711 -0.6856 0.28682092 0.9413128 0.3580505 0.14610924 0.6692986 0.5155298
0.12737496 -0.09309275 -0.086944066 0.5269697 -0.082731746 -0.13271563 -0.15212528 0.0048371768
0.2733026 -0.09763335 -0.011128389 -0.27394202 0.17828722 -0.25423044 -0.0005901315 -0.6817616
-0.19441313 0.8436308 -0.58086157 0.3312228 0.22785299 -0.18792434 -0.18637939 0.12807855
-1.2095344 0.06604947 1.1114913 -0.75598913 0.67590976 0.35305655 0.9714477 1.3400286
1.1727238 -0.19516249 0.021555753 0.3880066 -1.1497684 -1.404596 -0.67442006 -0.034124337
-0.32644945 0.1340235 -0.18230851 -0.69683146 -0.30807874 0.0734492 0.04764602 -0.074909925
-0.5612541 -0.58929616 -0.50452805 0.29104167 0.11476036 0.019251244 1.0279073 0.860193
0.4943775 -0.30400673 -0.7834116 -0.023509223 0.41724595 1.0160389 0.1265992 -0.37719387
-0.55710405 -0.23186545 0.02696928 -0.6721771 0.08475286 0.98890525 1.7131332 0.26836935
-0.49079695 -0.7243089 -0.20136137 -0.24656534 -0.6515368 0.008705363 0.63289493 1.1103612
0.49942902 -0.5125284 -0.8477095 -0.09413207 -0.36911047 -0.21132098 -0.0676561 -0.026955565
-0.40391523 -0.4798897 -0.76134396 0.47539428 -0.51967275 0.76340544 0.46567515 0.38970178
0.87648445 0.35866725 0.2373726 -0.08748992 1.2358277 -0.23012629 -0.5457696 -0.5474082
-0.318701 -0.04625658 -0.16148873 -0.5398743 -0.18379104 0.54641443 -0.1609384 -0.26646322
-0.2978241 -0.3475528 -0.51266795 -0.621035 -0.6530529 -0.023914125 0.16881397 0.060366504
0.30835566 0.47479168 0.35247096 0.005764775 0.0055163503 -0.27775094 0.120718375 -0.25439095
-0.2352146 0.5698506 0.7577374 0.46213326 -0.007151929 0.3015988 0.17747827 -0.07716606
0.0398911 -0.32688174 -0.33188397 -0.7732654 -0.60070413 0.006776941 0.04157829 -0.05085092
0.111984 0.0083740875 -0.019661829 -0.3930859 -0.69124955 -0.43359864 0.30212468 0.048101652
-0.015902592 0.031327136 0.17766652 -0.03044029 -0.31264323 -0.7434084 -0.22845048 0.29542005
0.25036857 0.26482183 0.29458725 0.24699746 0.14912017 0.5900046 0.25035033 -0.36480987
0.010367147 1.0362083 0.03336801 -0.10555042 0.13093798 0.47950357 -0.023838364 -0.2817388
-0.5857949 -0.49550048 0.12733628 -0.3676184 -0.40945366 -0.37976828 0.041693565 0.44811973
0.005471346 -0.62889826 0.06298245 0.80582064 -0.27201143 0.085704856 0.23856205 0.3518421
-0.075487174 -0.18995707 -0.070407614 0.22408469 -0.13260375 -0.06917021 0.27878335 -0.08287811
0.25133175 0.22623563 0.36164382 0.16337605 0.3721958 0.23440094 0.2914699 0.12610428
0.12820628 0.09667911 0.5692168 0.13116959 -0.39930955 0.17510691 -0.14068422 -0.7332994
0.113590285 -0.7539576 -1.0235233 -0.5580078 0.5196781 0.74458 -0.21279325 0.08651
0.809176 -0.35805437 -0.10858404 -0.007093012 -0.07845491 -0.027683116 -0.030295085 0.24781008

conv1.bias f4 [16]
00000000: 47e7 50bd 9d8b 25be 8b44 afbe a02f 9dbe
00000010: 96e8 d9bd afff cabd e592 86bf 60ad 64be
00000020: 2ce6 36bf b875 dabe 9bd5 4a3e af25 89be
00000030: 29c1 4fbf be5e 8abd 0842 55be a1db 84be
-0.051001813 -0.1616654 -0.34231982 -0.30700397 -0.10640065 -0.09912049 -1.0513579 -0.22331762
-0.71444964 -0.42667937 0.19808047 -0.26786563 -0.81154114 -0.06756352 -0.2082597 -0.25948814

conv2.weight f4 [32, 16, 3, 3]
00000000: 9c5b 97bd 3f95 14be 42fb f5ba 25f8 8ebd
00000010: 9585 37be aa8c 4abe a1f7 bdbd 4425 2e3d
00000020: d22e b7bc 375f 963e 09be 9b3d 5ece 79be
00000030: fdc8 bf3e 6f06 23bd d53f 21be 0d74 9e3d
00000040: 5966 78be 979b 9abc 9b15 4b3d 07f5 863e
00000050: b5bf c63c cd18 eabc edaa 303c d62e ba3d
00000060: 6414 85bb 863b 2ebe 7c14 d4bc 4bb3 a23c
00000070: 081d 803e 6ae1 cbbd 8022 463d 1b54 0e3d
00000080: a3ae 0a3d fa8c 0b3e 25dc b53d 1720 3fbd
00000090: ebcc 3d39 02bc e9bc fdc8 18bd f303 51be
000000a0: ce40 95be d3e9 8abd 4c58 1dbe c0c1 9cbe
000000b0: 4ab3 fcbd 45a9 f7bd bf98 7fbe f9dc 4abe
000000c0: 2ed4 a93d 1cc5 8d3e d4f7 8e3d 8e59 6c3e
000000d0: 5f92 733e 7ddc 643e 94fb 03be 1d87 08bd
000000e0: ef23 73bd 01c7 a7bd 2c34 bebc c39f f23c
000000f0: 73e5 333d 4052 fa3c bd6b 4ebe 601c 833c
00000100: e939 953e 0319 dbbc 56e1 e43d 7b0d 883d
00000110: 9070 683e 78b1 0fbe 07d0 85be 8e3b 00be
00000120: de4b fabc c020 b7bd 1b45 5cbe 5224 0bbe
00000130: 8606 a3bd ac31 c2bd bffa 5a3d f4ff 45bd
00000140: b83b 0f3d 8660 073e 3f16 933e 0655 c93e
00000150: 386e 84be a5c9 4fbe 59ca 07bc 602f 2ebe
00000160: 5661 22be 800d b3bc 317d 97bd f757 dc3d
00000170: 2037 51bd 3528 c73d d066 0f3e c769 973d
00000180: bec5 5abe 2d2c 82bc c7e2 6dbc 3ff5 f8bc
00000190: 8063 29bd c122 31be b336 323e 0609 c63e
000001a0: 0deb 713e 4d18 41bd 7764 3dbe f854 45bc
000001b0: 229a b23d bd87 fe3d e0b7 03bd eec1 12be
000001c0: cfbb 69be 8971 1fbe dde8 40bd d2a3 88bd
000001d0: a811 d6bd ba2e f0bd 5e36 753d 45ad b8bc
000001e0: 22d6 063c d96e b2bc c922 303e 046a 173e
000001f0: 09e5 033d 7fa6 cc3d 78fa acbc 49ca 013f
00000200: 9264 e4ba cd7c a2bc b856 b1bb 906d 5bba
00000210: 68ad a6bd d344 553e 9e11 213e 84c7 e9bd
00000220: f12b bfbe f2af b2be d8c5 d13c acea 9abe
00000230: d61a 83be 0b4d 47bc fc76 26be 50fc 2ebe
00000240: d390 283e d9b6 b03d 30a4 153d 2c9d 033d
00000250: 4dfb dc3c 2c61 30bd 9f41 f3bd 0335 8ebd
00000260: 7c0e 2dbe 6742 a1be 8d29 6fbe 405d 3f3d
00000270: 4ada b4bd 4cc9 a4bd a4f1 cd3e dbc2 08be
00000280: b051 343e 8260 203e f33c e9bd dd4a 44be
00000290: d7c9 88bd 7c3e 66be d398 debe 5eee e2bd
000002a0: bc00 5dbe 8349 bbbe 8c7e 43be 19d4 a9be
000002b0: 5e44 01bf 30a9 95be 12e2 a13d fc54 05bf
000002c0: 1e7e 38be 7e29 14be 52ae 6abe 3937 42be
000002d0: 7cf5 cfbe 3559 29bf 4a39 5bbe bc4e 2a3e
000002e0: ca8d f7bd 3bfb e9bd cb46 fe3e 6d1d 063e
000002f0: 9a58 013e dbc4 04be 2695 38bd 416c d0bd
00000300: 82a8 a93d 75e4 c4bd 0995 e2bd b80e c0bd
00000310: 50d8 eebd f3d5 eebc 03cb 283e b252 07be
00000320: 19bb b6bc b6b0 6b3e 0777 e2bd 5bef 0a3e
00000330: 7db5 5f3e 0d20 53bd 7956 c2bc 92d8 dfbc
00000340: 6f50 5abe 6828 d2bd 1d1e 15bd 11aa 1ebe
00000350: 00ea a63d 5ea8 22be f1c2 33bc 7eef aabc
00000360: 0980 60bd e247 49be d13f 9dbc e84b 53bd
00000370: 9a5c d8bd dfbf 1f3d 38a6 8abd 0f35 02be
00000380: 31d7 f0ba cf89 0b3e 0973 61bc 4334 5fbe
00000390: f3b1 ce3d 7da6 7b3d 8f51 973d b57d 85bc
000003a0: c63c 163e db81 583c b18e f13d e020 113e
000003b0: abd4 69bd f088 823d 726e 0cbc dae1 32be
000003c0: ff62 80bd e905 a3bd a769 f2bd e83d 9b3d
000003d0: 6034 b23c f288 22be 302c 0c3d b7e8 2cbd
000003e0: 48b0 8ebe f0dc bbbd 0c34 2d3c 1296 8abd
000003f0: 0767 303e 480f 2b3e 0812 b83c fc19 1d3e
-0.0739052 -0.14510058 -0.0018766897 -0.069809236 -0.17922051 -0.19780222 -0.09275747 0.042516008
-0.022361193 0.29369518 0.07604606 -0.24395129 0.3745803 -0.039801057 -0.15747006 0.07736979
-0.24257793 -0.01887302 0.04958115 0.26358816 0.024261335 -0.028576279 0.010782939 0.090909645
-0.0040612686 -0.17014894 -0.025888674 0.019860884 0.2502215 -0.09955104 0.048372746 0.034748178
0.033857953 0.13627997 0.0887988 -0.046661463 0.00018100782 -0.028532032 -0.037301052 -0.20411663
-0.29151005 -0.0678288 -0.15365714 -0.3061657 -0.12338884 -0.120928325 -0.24960612 -0.19810857
0.08292423 0.27689445 0.06980863 0.23081037 0.23786305 0.22349735 -0.12888938 -0.03333198
-0.05936044 -0.08192254 -0.023218237 0.029617196 0.04391999 0.030556798 -0.20158286 0.016004741
0.29145744 -0.026745325 0.11175792 0.06643196 0.22699189 -0.14032543 -0.26135275 -0.12522718
-0.030553754 -0.089417934 -0.21510737 -0.13588074 -0.079602286 -0.094821304 0.053461786 -0.0483398
0.03496906 0.13220415 0.2872791 0.3932268 -0.2586534 -0.20291765 -0.00828799 -0.1701026
-0.15857443 -0.021857023 -0.07396925 0.107589655 -0.051077962 0.09724466 0.14004064 0.07393222
-0.21364495 -0.015890205 -0.0145194 -0.03039038 -0.041354656 -0.17298414 0.17403679 0.3867876
0.23624821 -0.047142316 -0.18495356 -0.012044184 0.08720805 0.12428234 -0.03215778 -0.14331791
-0.2282555 -0.15570654 -0.047097076 -0.06671871 -0.104525864 -0.117276624 0.0598663 -0.022543559
0.008229764 -0.021781372 0.1720077 0.14786536 0.032200847 0.09992694 -0.021115527 0.5069929
-0.0017424992 -0.0198349 -0.005411949 -0.0008370513 -0.08138543 0.20827036 0.15729377 -0.11415008
-0.37338212 -0.3489986 0.025607035 -0.30257165 -0.25606412 -0.012164365 -0.16256326 -0.17088437
0.16461496 0.086286254 0.036533535 0.032132313 0.026975298 -0.04306142 -0.118777506 -0.06943705
-0.16900057 -0.31495973 -0.23355694 0.04671979 -0.08830698 -0.08046207 0.4022342 -0.13355581
0.17609286 0.15661815 -0.11388578 -0.19169183 -0.06679123 -0.22484773 -0.4347597 -0.11080621
-0.21582311 -0.36579522 -0.19091243 -0.3316963 -0.50494945 -0.29230642 0.079044476 -0.520828
-0.1801686 -0.14468953 -0.2291806 -0.18966378 -0.40616977 -0.66151744 -0.21408573 0.16631597
-0.12087591 -0.114248715 0.49663386 0.13097163 0.12631455 -0.1296572 -0.045064114 -0.10176898
0.082840934 -0.09613887 -0.110635825 -0.093778074 -0.11662352 -0.029154753 0.16483693 -0.1321514
-0.022306012 0.23016629 -0.11057859 0.1356787 0.21846576 -0.051544238 -0.023722874 -0.027324948
-0.21319745 -0.10261613 -0.03640567 -0.15494563 0.08150101 -0.1588454 -0.010971771 -0.020866152
-0.054809604 -0.19656327 -0.01919547 -0.05158606 -0.10564537 0.039001342 -0.06769985 -0.12715553
-0.0018374679 0.13626789 -0.013760337 -0.2179728 0.10092535 0.061438072 0.07388603 -0.016295293
0.1467162 0.013214554 0.11794794 0.14172697 -0.05708758 0.06373775 -0.008571254 -0.17468968
-0.06268882 -0.07960112 -0.11836558 0.07580167 0.02175349 -0.15872553 0.034221828 -0.04221412
-0.27868867 -0.09173 0.010571491 -0.06766905 0.17226802 0.16705048 0.022469535 0.15341944

conv2.bias f4 [32]
00000000: 481e c6be bc8b 143f 5a78 c43f d3ab 13bf
00000010: d396 4f3f ccd6 89be 7d7e 4b3c 27b2 66be
00000020: 3422 ab3d 6113 b2be 9c98 e3bd 185c 3a3f
00000030: fee9 093f 6c04 88bf bd79 abbf 754a b4bd
00000040: 7c63 5bbf aa6a b63e 89ca ea3d 33e8 95be
00000050: 832d 56bb bde6 e33d 4230 423f 1bdc 693e
00000060: c0a4 f9be 89fa ee3d c7cf 983d b642 81bd
00000070: 2421 28be b53a e83e 3aca 6c3f 17e4 333e
-0.38694978 0.5802572 1.5349228 -0.5768406 0.81089514 -0.2692169 0.012420294 -0.22528897
0.08356133 -0.3478041 -0.11113092 0.72796774 0.5387267 -1.062635 -1.3396527 -0.08803264
-0.85698676 0.35628253 0.11464412 -0.29278716 -0.0032680936 0.11127994 0.75854886 0.2283787
-0.48758507 0.116688795 0.074615054 -0.06311552 -0.16418892 0.4535729 0.92496073 0.17567478

conv3.weight f4 [64, 32, 3, 3]
00000000: d0cb a9bd 34c1 97bd e87d a9bd b984 febc
00000010: 2c1d 1ebd 7344 993c 8bc1 07bd 9d78 393d
00000020: 276e 803e 9eec 95bd 0a86 b3bd d5d1 01bd
00000030: 8f2b cbbd 67ef 98bd 8992 6b3b 3c7b 183d
00000040: 34e8 443d 7a2c 65bd 5b9e 37be 5a75 303d
00000050: 8e48 1b3e 6010 dabd 4680 3c3e cf14 203e
00000060: 184b 33bd dc61 163c 884a f13d af7b 35be
00000070: 107c d33c ac14 2c3e 3dc9 00be 48ca d6bd
00000080: 336a 9abd f3e4 bd3d bcaf 6abd d216 01be
00000090: f226 8bbd decb b13d 84db 133d d4c4 34be
000000a0: 59ba b9bb edc4 bfbb 8be0 3abc a8d0 31bd
000000b0: 1b23 af3d f537 463e 4641 973d 40ad e5bd
000000c0: bd9b 9f3e 5dd8 fbbb e2fc 94bd 897f 593d
000000d0: d03f acbd 0755 cabc e5f6 263d 944e 2d3d
000000e0: 9e68 b23d db6d 46bd d921 a0bc f2a5 efbc
000000f0: a81c d23b 697e d7bb 912b d7bc 52b5 83bd
00000100: c93c 063e ba04 723c e606 0ebc 3cd6 d63c
00000110: 3eeb 1fbe 467c 0b3d e8aa 973d fea2 c03c
00000120: df48 11be 5de7 5f3d e9da 9fbb 56c1 903d
00000130: 92a2 07be 5dfb 1fbe e483 06bd 9155 04be
00000140: 5cf6 01be cd34 32bd eabc 493e 4b4d 8b3d
00000150: 8935 9c3d b94f af3d f48e d439 b20d 8b3d
00000160: 8ad4 abbd 9d3d efbc 0a63 543c 372b d93d
00000170: 3040 123d 00e2 86bd aefb 37bc 5c00 8ebb
00000180: 2487 de3c 8e46 3ebe a047 95bd cb8e f93c
00000190: f253 32bd 770b c7bc 4cdc 063c 977e 00be
000001a0: 3992 06be 69c5 a2bc 0e25 1c3b 7002 053e
000001b0: 06ff 16bc 8b81 0bbe 6da5 c93d d24a fb3c
000001c0: 774f 15bd 714a 30bb 454d 763c 5b96 debd
000001d0: 446e 803b 6ad4 94bd ea96 87bd 4c7b 64bc
000001e0: 2bbe 6c3c a059 f0bd 21e0 afbd a875 69bd
000001f0: 573f 4d3c 3f20 b23c 404c e1bd 6d88 a8bd
00000200: 2a32 56bd c387 1b3e 24eb 0a3d ff3a 69bc
00000210: 7c28 333b 6b89 98bc fb82 1ebc 13b1 2dbc
00000220: 7739 2dbd b5c5 d1bd 837e e9bd 3c90 7ebd
00000230: 6eaa ea3c 7523 f93d 4245 6bbd 7c17 083d
00000240: e289 8fbd 445c 45bd 5209 eebd 9c83 a6bc
00000250: 76b7 2b3c 9faa ff3c a58b 03be bf68 80bd
00000260: c1ba 013d 6f70 cc3c ac6b f8bd f631 7abd
00000270: dd5b 8dbd c98b 1fbe df2f cabd 1c62 803d
00000280: 86a7 19bd f459 b13d 3f91 d5bd 0c96 1fbd
00000290: 1111 11bd 472c 13be 507c 84bc 16d4 023c
000002a0: 7a79 12bd cd7c 87bd 4bf9 b9bd b4ab 1d3d
000002b0: fade 1ebe 5d19 4ebe c4c0 293e 365c 41bd
000002c0: 6f3b e8bd 55f4 a73c 7195 5c3d 5495 afbd
000002d0: d8a2 b53d 4e7b 493e 06c0 7ebd 63eb 6c3d
000002e0: a57e fb3d 86b7 23bd a89e b6bd abd6 763c
000002f0: b8b6 403d 2221 fe3b 5640 2cbe ac4e 04be
00000300: 46ea 603e a804 9e3c fa4b bfbd ea57 f1bc
00000310: 1655 dd3b 616c 6a3d 5429 4c3e 9dd8 193c
00000320: dc85 9abc 23c0 ca3d 0f8f c7bd 3fe4 e33b
00000330: 1f8a d83d 57a0 9cbc 2684 2b3d be0c 69bd
00000340: a8ca 2d3d ee09 123e 4195 a9bd c8ca dbbc
00000350: 7428 c83d af39 f1bd caa2 2fbd 7b55 303c
00000360: ce24 b3bd 27c1 403d 9db4 51be 5ea4 6dbd
00000370: d0d8 663d 83f7 a9bd 8b0c 913a f7bf 9abc
00000380: c622 f9bd 722c c6bd a262 68bb e2f2 093e
00000390: c061 94bd 7b92 ad3d 61dd 163e cd36 bcbd
000003a0: ba07 59bd 85ed f83d 7ae4 183d e489 e5bd
000003b0: d0e1 4e3c 21a3 a7bd 1183 973d 2c69 96bd
000003c0: a713 dfbb 87ca 84bd c526 02bd 6bd2 bf3e
000003d0: 14a0 c7bc cb38 a2be 9335 043e 0ce7 64be
000003e0: da71 35be e621 be3d b685 d0bc f52b 05be
000003f0: ba48 963e 8a87 133d 205a 84be 91b3 643d
-0.08290827 -0.074098974 -0.08275968 -0.031069146 -0.03860204 0.018709397 -0.03314356 0.04528104
0.2508404 -0.07320522 -0.087658 -0.031694252 -0.099204175 -0.074675374 0.0035945496 0.0372269
0.04807301 -0.05595062 -0.17931502 0.043080665 0.15164396 -0.106476545 0.18408307 0.15632938
-0.043772787 0.009178605 0.11781794 -0.17722963 0.025815994 0.1680476 -0.12576766 -0.10487801
-0.07539787 0.09272184 -0.0572965 -0.12606362 -0.067945376 0.08681463 0.03609802 -0.17653209
-0.0056679663 -0.005852333 -0.011406074 -0.04341188 0.08551618 0.19357283 0.07385497 -0.112146854
0.31173506 -0.0076857046 -0.07274796 0.053100143 -0.08410609 -0.024698747 0.0407628 0.042311266
0.087113604 -0.04844461 -0.01954739 -0.029253934 0.0064121075 -0.0065763486 -0.026265891 -0.064310685
0.13109125 0.014771635 -0.008668637 0.026225202 -0.15617082 0.034054063 0.07405645 0.02351522
-0.14187954 0.054664005 -0.004878391 0.07068126 -0.1324561 -0.15623231 -0.032840624 -0.12923266
-0.12691635 -0.043507386 0.19700971 0.06801852 0.076273985 0.08560128 0.000405423 0.067897215
-0.08390148 -0.029204184 0.012963066 0.10603946 0.035705745 -0.06586075 -0.011229439 -0.004333539
0.02716405 -0.18581602 -0.07289052 0.030463597 -0.043537088 -0.024297459 0.008231234 -0.1254829
-0.13141717 -0.019869523 0.0023825797 0.12989211 -0.009216076 -0.13623635 0.098460056 0.030675326
-0.036452737 -0.002689984 0.015033071 -0.10868522 0.0039193947 -0.07267077 -0.066205814 -0.013945412
0.014449636 -0.117358446 -0.08587671 -0.05699697 0.012527308 0.021743892 -0.11000872 -0.08229146
-0.052293934 0.15188508 0.033915654 -0.014235257 0.0027337363 -0.018620213 -0.009674783 -0.0106013
-0.04229113 -0.10242788 -0.11401083 -0.06214927 0.02864572 0.12164966 -0.057439096 0.03322552
-0.07008721 -0.048183694 -0.116228715 -0.020326428 0.010480752 0.031209288 -0.12846239 -0.06269979
0.031672243 0.024955956 -0.12129912 -0.061082803 -0.06902287 -0.15580668 -0.09872412 0.06268713
-0.03751328 0.08659735 -0.10428094 -0.038961455 -0.035416666 -0.14372359 -0.016172558 0.007985136
-0.03576038 -0.06615601 -0.09080752 0.038493827 -0.15514746 -0.20126863 0.1657744 -0.04720708
-0.11339461 0.020502249 0.053853456 -0.08573404 0.088689506 0.19675943 -0.062194847 0.05784167
0.12280015 -0.039969943 -0.0891698 0.015065829 0.047049254 0.0077554146 -0.16821417 -0.12920636
0.21964368 0.01928933 -0.09340663 -0.029460866 0.006754528 0.057232264 0.1993764 0.009390024
-0.018862657 0.098999284 -0.09744083 0.0069546993 0.105732195 -0.019119425 0.041874073 -0.056896918
0.042429596 0.142616 -0.08280421 -0.026830092 0.09773341 -0.117785804 -0.042879857 0.010762568
-0.08747254 0.047059204 -0.20479055 -0.05801808 0.056359112 -0.08299162 0.001106636 -0.018890364
-0.12164836 -0.09676446 -0.003545918 0.13471559 -0.07245207 0.084752046 0.14732887 -0.0919014
-0.052985884 0.12154678 0.037327267 -0.11207941 0.01262708 -0.08185411 0.07398046 -0.07344279
-0.0068077627 -0.064839415 -0.031775255 0.37465224 -0.024368323 -0.31683955 0.12911062 -0.22353762
-0.17719212 0.09283809 -0.025454383 -0.1300505 0.2935236 0.036017932 -0.2585001 0.05583531

conv3.bias f4 [64]
00000000: b712 d6be 869b fabd af22 46be 9325 553f
00000010: eb37 06be ef03 25bf 901f cdbd 1ca9 0e3e
00000020: 9926 583e 59c0 133e 1995 153c 9bfb 03bf
00000030: 072a 4f3f 12a2 f5bd e6f4 7b3f 2db7 adbe
00000040: b865 a1be 1801 dabe 7b8e 263e 4cbe 9e3e
00000050: bdcb 33b9 680d 03be 935f 14bd dc88 92b9
00000060: 4cf3 fabc f735 f3bd 3a76 eabd 4081 e53e
00000070: fb11 6c3e 7b36 9f3d ba63 573e 3837 04bf
00000080: 141d 20be 5456 4cbd 9a6c 6f3e 4b49 48bd
00000090: bc91 983e 8040 013f 9004 2ebd 268c 863e
000000a0: 3739 17be 7d96 cfbd 700e e9be b42d ae3d
000000b0: 5164 12be b9c7 a33f 12fd 453e b50c 523f
000000c0: 030b 7abe f50b e3bd 51c4 e3be d448 0b3f
000000d0: 1650 cbbe ef3d c73e 91d5 033f ecb8 14bd
000000e0: ae3b 963f 2ca0 2a3f 0b9a 093e 06a7 573e
000000f0: 5903 843d 4b1c 05bd 1023 bbbe 9e93 2c3d
-0.41811153 -0.12236695 -0.19349168 0.8326046 -0.13107269 -0.6445913 -0.10015786 0.13931698
0.21108474 0.14428844 0.009129786 -0.51555794 0.80923504 -0.11993803 0.9842056 -0.33928815
-0.31522918 -0.4257896 0.1626529 0.3100456 -0.00017146669 -0.12798083 -0.03622396 -0.00027949258
-0.030633591 -0.11875527 -0.11448331 0.44825172 0.23053734 0.07774063 0.21034136 -0.5164676
-0.15636092 -0.049887016 0.23381272 -0.048898023 0.29798687 0.50489044 -0.04248482 0.262788
-0.1476792 -0.10136125 -0.45518827 0.08504811 -0.1429608 1.2795326 0.1933482 0.8205064
-0.24418263 -0.11086265 -0.44485715 0.54408 -0.39709538 0.3891444 0.5149775 -0.036309168
1.1736963 0.6665065 0.13437669 0.21059808 0.06445951 -0.032497685 -0.36550188 0.042132966

fc1.weight f4 [128, 1024]
00000000: 62be 25bb 91b9 cebd a3a7 debc d104 68bd
00000010: cde0 333c 6e86 cd3d 8903 b83d b9f7 18be
00000020: 0d7a 3c3d 402e b23d f3b6 8dbd 57a7 95bd
00000030: 5c15 98bd aa64 4abd 2018 5a3d 9fe7 87bd
00000040: 6b43 f63c 23f7 debd 8c75 03bc bc75 bcbc
00000050: 4d93 7cbd 7056 cbbd 069d e4bd 0a73 53bd
00000060: a2d9 32bd 2b59 1fbd 42ca 0cbd 6c93 af3d
00000070: 8e36 88bd 888c 013e d163 9b3d dd90 a9bd
00000080: 309f 103d cd68 48bd da66 9e3d 8266 d3bd
00000090: e505 cabc 878a 2b3d e11a 46bd 48fb 363c
000000a0: f7b6 cd3c d87e b0bc 1ed6 bdbd 83a1 873d
000000b0: 08fa a6bd 43a6 08be 17be 313b b3c5 7fbd
000000c0: b510 ddbc c1e6 43bd ef27 79bd 63fc e6bd
000000d0: 2125 db3b e783 17bb d07a 193e 0b32 b2bc
000000e0: e9bc f63b 66db b63d 9a2e 913d 5185 cabd
000000f0: 9b90 e8bc b2a8 be3a 8683 dabd 6c79 89bd
00000100: 9d70 a039 1685 bc3d de8c d2bc 05f8 1bbd
00000110: 5256 fa3d 33fd 45bd 47e5 7cbd efb7 8b3c
00000120: bafc 60bd 5f77 b9bc a01a bd3d cb89 e83c
00000130: f8ea b13c b7ad 07be 0f10 46bd 1ff3 aebd
00000140: e1dc 9bbd 6ac4 77bd c747 c6bb e9cb 063d
00000150: 1657 f2bd 882c 9fbd 0e70 40be 48d6 73bd
00000160: 8fa6 92bd 5b7b 253d e62e a73d 483f 163d
00000170: b9b5 023e 68d8 d33c 3822 7dbc 78ed 713d
00000180: b9ee 16bd 2ca7 77bc 6a01 89bd 688f 81bd
00000190: ab08 ea3c 8a8b 61b9 b550 54be 44e8 debd
000001a0: 365f 81bd 44e5 1bbd 0356 12be ee84 55bc
000001b0: d8d1 9b3d 4372 d0bc 1786 6c3c 3d0a 4fbd
000001c0: 12e6 963d 845d 603d af6a f93c 7599 dd3c
000001d0: 2671 15bd e0ec 8d3d 6361 25bd a170 81bb
000001e0: 375b 80bd cc72 81bd 7068 0bbd f966 35bd
000001f0: 1058 e2bd f8be 313b fed9 dcbc 2429 8ebb
00000200: 378c d73d 0ab9 153c 4e5f 47bc a11a cbbc
00000210: 79ab 523d 1e3a e6bb 2e0f c73d 015c 9a3d
00000220: 2c25 eebc cd75 d2bd 713b f0bc 5ffa d23c
00000230: dedd 04bd b2e0 6fbd 639b 6ebd 8596 cabb
00000240: b195 4cbd 80ce 483d eae3 5abd b9d8 06be
00000250: fcf3 07bd 19cf 923d 667f 7dbd 6476 323d
00000260: 9528 593d 3427 c23d ab3f 56bd 9495 85bb
00000270: ef3d 603b 2da3 aabb 9381 e33c 8bba 293d
00000280: 6ecc 93bc 6be5 cf3d 6b7c d53c 7326 92bd
00000290: db87 de3d c64a 703d 2e06 35bc 9e76 173d
000002a0: 5f1e debc 9223 92bd 6119 9fbd 334f cbbd
000002b0: 952f 883a a079 6fbc 446f dabd 476d 6abc
000002c0: 3327 103d 25bf 94bc ea7c bc3b e7dc de3c
000002d0: f028 163d 4f36 b5bd df31 21bb 3897 ee3a
000002e0: 875f c1bd e9ec bbbc 5fcf b53d 20de 4bbd
000002f0: 4247 503d a97d afbc 89a9 19bd d476 a53d
00000300: 0b0d 393c ef06 d6bc 6c8b 38bd b7ae 063d
00000310: 552a c63d 2bca aa3a a842 b33d 0150 96bd
00000320: 0222 113d 0870 7d3d 6377 bdbc 090e e33d
00000330: 68ff 1c3c a354 59bd 8fe2 66bd 8643 a4ba
00000340: 1eb9 96bd b6de 9fbb 35b3 83bc 988b ef3c
00000350: b9ea 7bbd 474d afbc 80fb 6abd 80cf 773c
00000360: dcba 7dbd 47a7 28bb d44e a0bb 0db3 66bd
00000370: ad09 a33b 709d 1b3d c1c1 d03c 112a fc3c
00000380: a745 dc3c d1d9 2eb7 0a31 ac3d e5f3 1c3d
00000390: 106b 25bd dccf ad3c 5b18 303d d412 0c3b
000003a0: 0aa5 3a3c 01b1 8abd 4aca aebb 4b2a 9ebb
000003b0: 40db b0bd e88d 00be 8c88 21bc 86e1 78bd
000003c0: 6cc2 b5bc 8098 5cbd 78a2 56bd b30b f2bc
000003d0: 766e 42bd e354 8b3d 9e78 9c3d c353 ca3d
000003e0: 21de a4bd f2c8 b23d ed98 343d efd5 a4bd
000003f0: 195d f0bc 6c81 193e f3ae 2a3e e3a3 1cbd
-0.002529048 -0.10093988 -0.027179545 -0.05664522 0.01097889 0.10035406 0.08985049 -0.14938249
0.046014834 0.08700228 -0.069196604 -0.07307308 -0.07425949 -0.049412407 0.053245664 -0.06635975
0.030061444 -0.10886981 -0.008023631 -0.023005359 -0.061663914 -0.09928596 -0.11162762 -0.05162338
-0.043664582 -0.038903397 -0.034372576 0.0857304 -0.066510305 0.12651265 0.07587398 -0.082795836
0.035308063 -0.04892807 0.07734461 -0.10322286 -0.024661014 0.041880157 -0.048365477 0.011168309
0.025111658 -0.021544859 -0.09269355 0.06622603 -0.081531584 -0.13344674 0.002712136 -0.0624444
-0.026985506 -0.047827486 -0.0608291 -0.11278608 0.0066877757 -0.0023119391 0.14988256 -0.021752378
0.007529844 0.08928566 0.07088967 -0.09888709 -0.028389266 0.0014546125 -0.10669617 -0.067126125
0.00030601482 0.09205072 -0.025701936 -0.038078327 0.122234955 -0.048337173 -0.061742093 0.01705548
-0.05492852 -0.022639928 0.09233594 0.028386017 0.021718487 -0.1324986 -0.04835516 -0.085424654
-0.07610489 -0.06049005 -0.006051037 0.032909308 -0.118330166 -0.077721655 -0.18792745 -0.059530526
-0.07160675 0.040400844 0.08163242 0.036681443 0.12764634 0.025860026 -0.015450053 0.05906436
-0.036848757 -0.0151155405 -0.06689723 -0.06326181 0.028568586 -0.00021509654 -0.20733912 -0.10884145
-0.06316988 -0.03806044 -0.14290623 -0.013032181 0.07608384 -0.02544511 0.014436266 -0.050546873
0.07368101 0.054776683 0.030446379 0.027050713 -0.03648486 0.06929946 -0.04037608 -0.003950194
-0.06267398 -0.06320724 -0.034035146 -0.044287656 -0.11051953 0.0027121883 -0.026959416 -0.0043384004
0.10524791 0.009138355 -0.0121687185 -0.024792971 0.05143306 -0.007025971 0.09719692 0.075370796
-0.02907046 -0.10276375 -0.029325219 0.025754152 -0.03243815 -0.058563896 -0.058253657 -0.006182494
-0.049947444 0.04902506 -0.053440012 -0.1316861 -0.033191666 0.07168407 -0.061889075 0.043569937
0.053017218 0.09480134 -0.052306812 -0.004076669 0.0034216603 -0.0052074404 0.027771747 0.041437667
-0.018041816 0.1015118 0.026060304 -0.0713624 0.10865756 0.05866506 -0.011048837 0.036978357
-0.027114091 -0.07135691 -0.077685125 -0.099272154 0.0010390157 -0.0146164 -0.106657535 -0.01430828
0.035193633 -0.018157551 0.0057521956 0.027204944 0.036660135 -0.08848249 -0.0024596376 0.0018203026
-0.094420485 -0.022940116 0.088774435 -0.04977238 0.050849207 -0.021422224 -0.037515197 0.08079305
0.011294614 -0.026126353 -0.045054838 0.032881465 0.09676043 0.0013030221 0.08752948 -0.07339478
0.035432823 0.06187442 -0.023128217 0.11086661 0.009582378 -0.05305923 -0.056368407 -0.0012532331
-0.07359527 -0.004878844 -0.016076664 0.029241368 -0.061503146 -0.021399153 -0.057368755 0.015125155
-0.06194578 -0.002573447 -0.0048922095 -0.0563231 0.0049755187 0.03799194 0.025483014 0.030781778
0.026888682 -1.04219225e-05 0.08407791 0.038318533 -0.040385306 0.02121728 0.042991977 0.0021373527
0.011391887 -0.06772042 -0.0053341733 -0.004826819 -0.086355686 -0.12554133 -0.0098592155 -0.06076195
-0.022187434 -0.053856373 -0.052401036 -0.029546594 -0.047468625 0.068033 0.076401934 0.098792575
-0.0805018 0.087297335 0.044091154 -0.08048617 -0.029341267 0.14990777 0.166683 -0.038242232

fc1.bias f4 [128]
00000000: 82f0 c43d 32c6 443e c0bc 453e fc9e 433e
00000010: 275f 803d 5c9d 5f3e 3cd5 2d3d cb95 34bd
00000020: aa3b bd3b 8a5d a33e be9b a23e 59c1 133c
00000030: 77f8 b63c bd9d 593e cb1e f53d 6024 733e
00000040: 3fc7 c83d aeef 213e 25fc 973d e7f8 e1bd
00000050: 204a d2bb 9404 4b3e 74a7 b3bc 0f23 ce3d
00000060: f587 eabc 5e4c 143e e920 183d c2ec 20bc
00000070: 9b0c 853d b0f4 22bb 0da5 1f3d 2533 733e
00000080: 03f6 3d3e 2643 ac3d 319a e63d 646a 273e
00000090: bd8b 683d 9464 9ebc b49e 253e 97a0 053e
000000a0: 40ef ae3d fff0 623c 42a5 14bc 2c41 693e
000000b0: 7135 efbb d809 133d 82a0 933e eeb0 97bd
000000c0: b8a4 41bd 3578 2c3d 4f41 a53d 6428 30bd
000000d0: bcc1 263e b561 453e 864c 1f3e 02f6 c43d
000000e0: 3c96 9f3e ae46 833e 1f3c 72bb 6788 c1bb
000000f0: 1419 a33c c2e0 6fbc 71b6 193d d8e9 b83d
00000100: 6a30 123d d7b8 c03b a9b9 a1bd bebf 933d
00000110: 12b1 2d3e fbb8 443e be56 5cbd 1947 963e
00000120: 8983 853d 3300 6e3e bb09 243d 1d2f 703d
00000130: 4bab 48be f15f 2b3c 6a27 253c 5080 9b3e
00000140: 9bf7 433d b0b0 b1bc be74 b7bc 2840 c2bc
00000150: 1f50 07bd f062 2a3e e2da 383d 7a4d 3a3d
00000160: 8a87 7c3e 5f68 2c3e db10 6e3d 951f 36bc
00000170: 41fe 523c e864 08bd 3f05 11bd c5bd 6ebd
00000180: 3d03 103d a2a3 933e bf1c b73c bd41 7a3d
00000190: c582 a5bd a4fa af3d e079 023e b83e bf3d
000001a0: 72d7 193e c210 d63d d43a ed3d de8d 55bb
000001b0: 9b00 573e bf30 7cbc cbd7 c03a 24c4 c83c
000001c0: 6ddf bebc 45e6 333d 0983 1d3d 1847 713d
000001d0: 3633 833e ee71 81bd 8b8b e7bc a555 9d3c
000001e0: 138a 393e 00f7 d43c d5af 403e 4ce0 6a3e
000001f0: 6322 6d3e ec4e 4f3d a49d 85bc e3a9 88bc
0.09616186 0.1921623 0.19310284 0.19103616 0.06268149 0.21837372 0.042439684 -0.044088166
0.005774935 0.31907302 0.31759447 0.009018266 0.022335274 0.21251579 0.11968764 0.23744345
0.09803628 0.15814087 0.0742114 -0.110338025 -0.006417528 0.19825965 -0.021930434 0.10065281
-0.028629282 0.14482257 0.03714076 -0.009822072 0.06496545 -0.0024865083 0.038975764 0.23749979
0.18550877 0.08411245 0.112598784 0.16349179 0.05677389 -0.019335069 0.16173822 0.13049541
0.08541727 0.013851403 -0.009072604 0.22778767 -0.007300072 0.03589806 0.28833395 -0.074067935
-0.04727623 0.042106826 0.08069097 -0.04300727 0.16284841 0.19275554 0.15556535 0.09617235
0.31169307 0.25639862 -0.0036962104 -0.005906153 0.01990942 -0.014640989 0.037527505 0.09028977
0.035690702 0.0058814096 -0.0789674 0.07214306 0.16962078 0.1921119 -0.05379366 0.29351118
0.06519229 0.23242263 0.040048342 0.05863868 -0.19596593 0.010459886 0.010080198 0.30371332
0.047843557 -0.021690696 -0.022394534 -0.023712233 -0.033035394 0.16639304 0.045130618 0.045484044
0.24661079 0.1683669 0.058121543 -0.011115928 0.012878002 -0.033299357 -0.035405394 -0.058286447
0.03515934 0.2883578 0.022352574 0.06109785 -0.08081583 0.08592728 0.12741804 0.093381345
0.15023592 0.10452415 0.11583486 -0.003258578 0.20996325 -0.015392481 0.0014712749 0.02450759
-0.023299897 0.043920774 0.038455043 0.05890569 0.25625008 -0.063205585 -0.028264781 0.019205878
0.18119077 0.025996685 0.18817075 0.22937125 0.23157649 0.050612375 -0.01631052 -0.01668257

fc2.weight f4 [10, 128]
00000000: 5660 b9be 181c 0fbd 5e77 d9be 4e9e 0dbf
00000010: 2d94 ebbd f229 bd3d 9910 713e f026 5ebe
00000020: aad6 393e f0e8 b8bd 167d c0be 0f1c bb3d
00000030: 8f35 64bd 62f2 823e ba00 3d3e bbf0 263e
00000040: 9d78 0d3e 0bac 29be 7c44 753e 20cc fe3d
00000050: be18 89bd 08ba d4bc 0815 a83d 3119 00bd
00000060: e0e0 8fbd 537d 103e 6293 a43e 531b 323e
00000070: 05c6 fabd cea1 2f3e acee 1fbe 31e5 88be
00000080: 4267 1dbe f4b9 9dbd 9cfa 9b3e 3543 123e
00000090: c0c7 583d 15d5 0a3e 3800 983e 9bd7 c2bd
000000a0: 41a0 a33d 25cd d83d 87e7 b3bd c67f adbe
000000b0: 0231 a9bd e6a7 523e 2ee1 08bd 5a30 ffbd
000000c0: 8786 213d f274 d43e 2042 8d3d f70a 6bbc
000000d0: 06df 9dbd 7bf1 87be fbdb eebc b755 db3e
000000e0: 214b 12be 0bfb 3ebe 8a74 3d3c 454d 8abe
000000f0: 86b8 023d d1b9 18bc 4dfc 52be 42c9 2abd
00000100: 11e5 d3bd 2a02 0d3e c61d 35be 3c95 19be
00000110: 2d63 bfbd b7f7 f5bb 34c5 86bd 1c71 75bd
00000120: e64a 7a3e 3a41 84be a258 b2be 9cd8 08bc
00000130: dfc2 453e f222 043e 3782 42bd 26c9 aebd
00000140: 389c fcbd 0f4d d4bd 8f28 0e3e cba5 b1bd
00000150: c0be 31be 05bd 6b3e 42ec 74bc 8f3b 9d3c
00000160: bed3 01be df69 82bd a5da 5e3e 6962 b63d
00000170: e400 bf3d af1c 86bd 396c dd3d ce7b d3bc
00000180: bc86 233e 1ebb 54be 3c0b 2b3e a2c2 13be
00000190: 75cf 50bd d585 433e e4a3 22be 19e8 01be
000001a0: 8b70 4f3e db05 b33d fc15 833e 3df0 d9bc
000001b0: ed5a 803e c16a 90bd 9e3b aa3c 99cf d6bd
000001c0: 528e ed3d 5dc9 79be 65df f0bd 6e61 74bd
000001d0: 3a91 033c e88e 843e 1b84 27be 0fdf 293d
000001e0: 6d5b 88bc 24cf 14be ee8f 693e f0f4 a4bd
000001f0: d843 36ba 9997 0ebe 72bd 923c ec71 953d
00000200: c40e 823e 5184 f8bd 7ce9 50be 3529 c5bd
00000210: 5241 483c fe45 a8be bd7c 303e 2794 c33e
00000220: 6d45 cdbc 912a e4bd 7ba5 75be 0e45 123e
00000230: 997b ec3d afe1 0fbd 0560 3d3d a32e 6ebd
00000240: 87de 2abe 6582 4dbe 95d3 c2bd 0fdb 353e
00000250: 65cd 8abd 40dd cf3d 725e dc3c 909f fa3d
00000260: 03b4 003e b660 6c3d 80f1 833e 4b7a febd
00000270: 05a9 51be ed7e 5a3d be19 073e 9bc3 82be
00000280: f8d6 69be 4292 c53d da91 cc3c 73d7 24be
00000290: a091 ffbd 16e4 b53e 90ec 673c 1e35 a8be
000002a0: 3d5c 8c3d 1345 953d 6670 563d 0ac9 92be
000002b0: 7319 1ebd 786a 9c3e 22ab d2bd a820 893e
000002c0: b7ad 7b3e 73cc 49be 60c9 84be 4cbe cd3d
000002d0: 6f3a 26bd 8bb6 c93a 5aa6 85bd e60f c4bd
000002e0: a746 1cbe 14e8 bdbe f169 a23d 5f45 bc3e
000002f0: 2fe0 9bbd dcb7 26bc 375f 833e d149 e43d
00000300: a682 b1bb a365 97be e1d9 9b3d 2847 e0bd
00000310: 0105 95bd 5ab9 e2bd 78e0 733e e09c c0be
00000320: 217b bcbc 1445 9c3d 3e3b 00bd 5b6e 373d
00000330: 3b94 4d3e a549 7fbd 8e5d 9fbd 82cc 38be
00000340: b6d7 32be 5f2e 183e 9efe 413e 48b0 acbd
00000350: 1ec2 6d3e 31d4 23be cc6c f83d 700c d9bd
00000360: 9391 5dbe 918f 73be 36fa 73be 0a52 00bd
00000370: 21b0 793e 0188 113e f53c 1ebe 994f b13b
00000380: 7ca4 833d 5d37 cfbd 1a02 193d 97a4 a9bd
00000390: 2042 573e fd81 fcbd f474 5fbe 68b2 0b3e
000003a0: a7eb a0bd 999c 1c3e cda1 5ebe 6ccd 50bd
000003b0: 8cd9 9b3e fb3c 08be 800d 943e f33d 0dbe
000003c0: 1614 14bd 63c5 81be 47ba 56bd 2f1a 413e
000003d0: 4ccd e1be 3253 893d 6659 1bbd 0a7b 2bbe
000003e0: 43ad d7bd 0cdb 903c dda5 913e 8468 35bd
000003f0: 4bd4 08bd 5e03 94bd c9aa 903d c543 07bd
-0.3620631 -0.0349389 -0.42473882 -0.5531968 -0.11502872 0.09236516 0.23541488 -0.21694541
0.18148294 -0.09028804 -0.37595433 0.09136211 -0.05571514 0.25575548 0.18457308 0.16302769
0.13815542 -0.16569535 0.23951906 0.124412775 -0.06694172 -0.025967613 0.082071364 -0.031274024
-0.070253134 0.14110307 0.32143694 0.17393236 -0.122448005 0.17151567 -0.1561839 -0.2673736
-0.15371421 -0.07701483 0.30464637 0.1428345 0.05292487 0.13557847 0.29687667 -0.0951378
0.079895504 0.10586003 -0.08784395 -0.33886546 -0.082613006 0.2057186 -0.033417873 -0.12460394
0.039434936 0.41495472 0.06897378 -0.014345876 -0.07708554 -0.26551422 -0.02915763 0.42838833
-0.14286472 -0.18650453 0.01156343 -0.27012077 0.031914257 -0.009321646 -0.20604058 -0.04169584
-0.10346425 0.13770357 -0.17687139 -0.14998335 -0.09345088 -0.0075063366 -0.06580582 -0.059922323
0.24442634 -0.25831014 -0.34833246 -0.008352425 0.19312619 0.12903956 -0.047487464 -0.0853446
-0.12334484 -0.1036626 0.1388266 -0.086742006 -0.17357922 0.23021324 -0.014948906 0.019193439
-0.1267843 -0.063678496 0.21763094 0.08905489 0.09326342 -0.0654844 0.108116575 -0.02581587
0.15969366 -0.20774505 0.16703504 -0.14429715 -0.050979096 0.19094022 -0.15882832 -0.12686194
0.20257775 0.08741351 0.2560271 -0.026603812 0.2506937 -0.07051612 0.02078038 -0.10488815
0.11599411 -0.2439322 -0.11761359 -0.05966323 0.00803023 0.2589028 -0.16358988 0.04147249
-0.016645158 -0.14532143 0.22808811 -0.080545306 -0.00069528585 -0.13925017 0.0179126 0.072971195
0.2540189 -0.12134612 -0.20401567 -0.09627 0.012222605 -0.328659 0.17235084 0.3819897
-0.025057519 -0.111409314 -0.23988907 0.14284155 0.11547012 -0.035127338 0.04623415 -0.058149945
-0.1668645 -0.20069273 -0.09513012 0.17759345 -0.06777457 0.10149622 0.026900504 0.122374654
0.12568669 0.05770942 0.25770187 -0.12425669 -0.20474632 0.053343702 0.13193414 -0.2553986
-0.2283591 0.09647037 0.024971891 -0.16097812 -0.12478948 0.35525578 0.014155522 -0.32853025
0.068535306 0.072885655 0.052353285 -0.28669006 -0.03859849 0.3054998 -0.10286547 0.26782727
0.24577986 -0.19706897 -0.25934887 0.10046062 -0.04058307 0.0015389485 -0.0652587 -0.09573345
-0.15261327 -0.37091124 0.07930363 0.36771676 -0.07611119 -0.010175671 0.2565858 0.11146892
-0.005417186 -0.2956973 0.076099165 -0.10951072 -0.07276345 -0.11070509 0.23816097 -0.37619686
-0.023007931 0.07630363 -0.031306498 0.044782978 0.20076077 -0.062326092 -0.07781516 -0.18046764
-0.174651 0.14861439 0.18944785 -0.084320605 0.23218581 -0.15998913 0.12130126 -0.105980754
-0.21637563 -0.23785235 -0.23825917 -0.03132824 0.24383594 0.14212038 -0.15452941 0.0054111
0.06427857 -0.101179816 0.03735552 -0.08283346 0.21021318 -0.12329481 -0.21821958 0.13642275
-0.07857447 0.15294112 -0.2174141 -0.050977156 0.30439413 -0.13304512 0.2891655 -0.13793163
-0.036151968 -0.25345907 -0.05242374 0.18857644 -0.44101942 0.06705321 -0.037927054 -0.16746154
-0.10531094 0.017682575 0.28446856 -0.044289127 -0.033405583 -0.07227205 0.07063825 -0.033023614

fc2.bias f4 [10]
00000000: e330 87be 56d0 a8be 4e5b 123c da7d 103f
00000010: b644 953d d659 1a3e f197 a5bd 6718 2bbe
00000020: beda 793e 6af7 18bd
-0.26404485 -0.32971448 0.008932902 0.56442034 0.07288496 0.15073332 -0.08085621 -0.16708528
0.2439985 -0.037345327
